Loading data...
Bulid model...
Model: "model"
__________________________________________________________________________________________________
Layer (type)                    Output Shape         Param #     Connected to                     
==================================================================================================
Input_layer_1 (InputLayer)      [(None, 2)]          0                                            
__________________________________________________________________________________________________
Hinden_layer_1 (Dense)          (None, 15)           45          Input_layer_1[0][0]              
__________________________________________________________________________________________________
activation (Activation)         (None, 15)           0           Hinden_layer_1[0][0]             
__________________________________________________________________________________________________
Hinden_layer_2 (Dense)          (None, 28)           448         activation[0][0]                 
__________________________________________________________________________________________________
activation_1 (Activation)       (None, 28)           0           Hinden_layer_2[0][0]             
__________________________________________________________________________________________________
Hinden_layer_3 (Dense)          (None, 43)           1247        activation_1[0][0]               
__________________________________________________________________________________________________
Input_layer_2 (InputLayer)      [(None, 33)]         0                                            
__________________________________________________________________________________________________
Concatenate_layer (Concatenate) (None, 76)           0           Hinden_layer_3[0][0]             
                                                                 Input_layer_2[0][0]              
__________________________________________________________________________________________________
activation_2 (Activation)       (None, 76)           0           Concatenate_layer[0][0]          
__________________________________________________________________________________________________
Hinden_layer_4 (Dense)          (None, 83)           6391        activation_2[0][0]               
__________________________________________________________________________________________________
activation_3 (Activation)       (None, 83)           0           Hinden_layer_4[0][0]             
__________________________________________________________________________________________________
Hinden_layer_5 (Dense)          (None, 83)           6972        activation_3[0][0]               
__________________________________________________________________________________________________
activation_4 (Activation)       (None, 83)           0           Hinden_layer_5[0][0]             
__________________________________________________________________________________________________
Hinden_layer_6 (Dense)          (None, 1)            84          activation_4[0][0]               
__________________________________________________________________________________________________
activation_5 (Activation)       (None, 1)            0           Hinden_layer_6[0][0]             
==================================================================================================
Total params: 15,187
Trainable params: 15,187
Non-trainable params: 0
__________________________________________________________________________________________________
Training...
   1/1056 [..............................] - ETA: 1:16 - loss: 9.0766e-04 
…
